h1_weights.npy (npy, 179328 bytes, 1 tensors)

array f4 [64, 700]
000000 d2 2a aa 3d 8d 26 c5 3d 8a 23 c1 3d ca 5c a4 3c
       0.083089486 0.096264936 0.09430607 0.020063777
000010 43 b2 8d bb 8b ce 61 3d 6e e8 96 bc e4 05 a8 bb
       -0.004324229 0.055128615 -0.018421378 -0.0051276553
000020 df 74 d0 bc a5 58 80 bc d7 84 9a 3c b8 f6 b0 bd
       -0.025446353 -0.015667269 0.018862171 -0.08640808
000030 2f 07 c7 3d 57 cf 53 bd 85 c7 1f 3c a1 c1 ce bd
       0.09718167 -0.051711407 0.009752159 -0.100955255
000040 24 81 1e 3d 41 cd 17 bb 0d eb 21 3c 38 bb a7 3c
       0.038697377 -0.0023163112 0.009882701 0.020475015
000050 7c 56 88 bd f2 79 06 3d c0 c1 a8 3d c5 5e fa bc
       -0.066571206 0.03283114 0.0824008 -0.030562768
000060 27 32 c1 3c 61 42 44 3d 8d 01 33 3d 3b 74 3a 3d
       0.023583485 0.047914866 0.04370265 0.045521002
000070 cb 85 52 3d 6f 44 85 3b 1c b0 1c 3e 4b 4d d5 bd
       0.051397126 0.004066996 0.15301555 -0.10415133
000080 aa d0 21 bb 9b 00 a6 3d d3 45 f2 3c 6e fa a5 3c
       -0.0024691024 0.08105584 0.02957431 0.020261016
000090 a3 5e f5 bc c4 f9 89 3d a3 ca 40 3a 5c 57 27 3c
       -0.029952353 0.06737092 0.0007354414 0.010213699
0000a0 4e c8 98 3c a2 cd 4b bd 0d 23 0e 3c 79 e1 c3 bb
       0.0186502 -0.049756654 0.008675349 -0.005977806
0000b0 d2 71 67 bd be 33 d0 3d ee d4 08 3d c4 d4 4b 3d
       -0.056505032 0.10166119 0.03340619 0.049763456
0000c0 ee 05 2c bc f5 f0 98 3d f7 fd 7b bc 0c b8 cb 3d
       -0.010499461 0.07467834 -0.015380374 0.099472135
0000d0 cb d0 f4 3c 64 33 b5 3d 8c 2c 9b 3b 8c 7e d7 3b
       0.029884716 0.088476926 0.004735535 0.006576365
0000e0 0b da 6a 3c cd 24 6f 3d 1b 47 67 bb 5e 22 35 3d
       0.014334212 0.058384705 -0.0035290185 0.04422223
0000f0 75 f5 14 3d 5f a2 d8 bc 98 b1 3f 3d 11 bb fe 3c
       0.0363669 -0.026444612 0.046800226 0.03109506
000100 89 28 29 bd 9c ab af bc b9 be 55 3d 7b 99 02 3b
       -0.041298423 -0.021444134 0.05218384 0.0019927907
000110 a0 e6 63 bd ec bc 10 3d bc b2 d8 3c db 7c f6 bd
       -0.055639863 0.03533642 0.026452415 -0.12035533
000120 46 ce f8 bc bd b1 39 3c 83 66 22 3d 5b 5e ad bd
       -0.030371796 0.01133388 0.039648544 -0.084652625
000130 bb d7 8b ba 04 30 18 bd 69 e6 2b bc 76 e4 69 bd
       -0.0010669151 -0.037155166 -0.010491946 -0.057102643
000140 2c 22 80 3d f9 19 31 bd 8e dc 38 3d 41 5c 7a bc
       0.06256518 -0.04323766 0.045132212 -0.015280784
000150 33 47 22 3d 04 03 82 bb 0d 7e ae 3c dd d0 37 bd
       0.039618682 -0.0039676446 0.02130034 -0.044876922
000160 06 83 47 bd 53 2d ef bd 70 f1 d9 3c 1c c8 b0 bc
       -0.048708938 -0.11678567 0.026604384 -0.021579795
000170 d6 25 02 3d cf f9 9a bd 26 d6 3e bc 89 05 f9 bd
       0.031774364 -0.075671785 -0.011647737 -0.12159259
000180 6f 36 e4 bd d5 53 8f bd 97 a7 3c 3d ab cb 0f 3c
       -0.11143195 -0.069984116 0.046058264 0.008776586
000190 6f a2 73 3d c0 07 d7 3c f2 da 20 3b 57 d7 8c 3c
       0.05948108 0.026248813 0.0024544564 0.017192526
0001a0 d9 11 91 bd 36 5c 2e 3d ee e0 35 bc a3 b6 5f 3d
       -0.07083482 0.042568408 -0.011100991 0.054617535
0001b0 66 7d 07 3d 6e 4c ef bd a1 fa 03 bd 98 40 0f 3c
       0.033078574 -0.116845 -0.03222144 0.008743428
0001c0 99 ad 1a 3d 1a 65 81 bc 34 f5 c0 bb 93 0e 22 3c
       0.037763212 -0.01579528 -0.0058886055 0.00989117
0001d0 dc c1 1c 3d 61 f7 af 3b 40 45 d7 3d 2b 79 05 bd
       0.038270816 0.005370066 0.10511255 -0.032586258
0001e0 d7 14 1a 3d f4 70 40 bc f9 f6 f5 bc cb 6b d4 3b
       0.03761753 -0.01174568 -0.030024992 0.0064825765
0001f0 ba 89 ac 3c 31 4b 68 bd a3 fe 2a 3d f9 2d 32 3d
       0.021061767 -0.056712333 0.041746747 0.043500874
000200 d6 da e2 bc dc 8d ab bb df 89 89 3c fb ee ae bc
       -0.02769224 -0.005235417 0.016789375 -0.02135419
000210 c8 eb c5 bd a8 0d 3f bb d7 84 76 bc 9e 37 83 3b
       -0.09664112 -0.0029152427 -0.01504632 0.004004433
000220 2c 8f cb bc 0a 7e f9 3a 5b de d1 3b b1 69 6c bd
       -0.024848543 0.0019034755 0.0064046807 -0.057717983
000230 12 65 29 bd 97 4c 9b 3d e5 5f 2b 3c 13 78 a1 bd
       -0.041356154 0.07582968 0.010459875 -0.078842305
000240 77 75 69 3c 32 71 e3 3c f5 49 30 3c 44 32 2b 3d
       0.014249197 0.027763937 0.01075982 0.041795984
000250 01 e3 e2 bb 84 b2 55 bd 6b 5f b4 bc a4 ca 92 3d
       -0.0069240336 -0.0521722 -0.022018155 0.07167557
000260 ba cd 33 3d ef 93 b3 3c 87 68 72 bc a2 54 5e bd
       0.043897368 0.021921126 -0.014795429 -0.05427993
000270 86 89 ae bc 18 98 8f 3b 4f 41 e6 3b c4 c9 3c b9
       -0.02130581 0.0043821447 0.0070268284 -0.0001800424
000280 f4 fa 2e 3b 16 2e e0 3d cd b8 50 bc 47 db b3 bd
       0.0026699873 0.1094629 -0.012739372 -0.08782058
000290 e8 28 9e 3c 8b 64 89 bd 2d 30 7b 3c d0 2a 7f bd
       0.019306615 -0.0670863 0.01533131 -0.06229669
0002a0 58 e4 c8 bd 07 43 5a 3c df 59 e7 3b 9d c7 e4 3b
       -0.09809178 0.013321645 0.007060274 0.0069818036
0002b0 53 29 09 3d cb 30 39 3c b8 fe 5e bd c1 ab a9 3c
       0.033486675 0.011303137 -0.054442137 0.020711781
0002c0 6f ca 45 bc 33 60 ea bc bd b6 57 bc e7 10 ad 3d
       -0.01207219 -0.028610324 -0.013166127 0.084504895
0002d0 38 56 3b 3d 47 7e 2c 3c a7 c6 c7 3c 9a 69 40 bd
       0.04573652 0.010528154 0.024386717 -0.04697571
0002e0 db 90 5f 3d 0c ef d4 bb 51 17 34 bd 5c 06 f9 bb
       0.054581504 -0.006498223 -0.04396755 -0.007599635
0002f0 68 af bb bc 06 1c 09 bd 88 db 5b 3d 22 1a 7b bd
       -0.022910789 -0.03347399 0.05367616 -0.06130422
000300 a6 6a ca 3c bf ad 33 3d 16 cb 4c bd 42 ff f0 bc
       0.024709057 0.04386687 -0.049998365 -0.029418591
000310 44 58 1f bd 7c 40 2c bd 39 d9 95 3c 97 db a1 3d
       -0.038902536 -0.042053685 0.018292056 0.079032116
000320 8e 2e 6f bd 24 37 08 bd a7 16 00 bd a0 6d 7f bc
       -0.058394007 -0.03325571 -0.031271603 -0.0155901015
000330 32 4a ab bc 96 d6 4e 3d 8f 7d b0 3d 92 10 9a bc
       -0.020909403 0.050497614 0.086176984 -0.01880673
000340 df f2 49 3d 2b 1d 18 3c 9a 8d cf bb c7 59 d4 bd
       0.049303886 0.009284298 -0.006334019 -0.10368686
000350 44 6f 6f bd 5f b0 22 bd 72 f5 a0 3c d2 f2 85 bd
       -0.05845572 -0.03971898 0.019648287 -0.06540455
000360 2c cf e3 bb 00 7a 27 bd 7f 5f 9a ba 05 47 5f 3c
       -0.006952187 -0.040887833 -0.0011777728 0.013627772
000370 d7 63 79 bd 2e 19 36 bc 2a 77 02 bd 05 da b0 3c
       -0.06088623 -0.011114402 -0.031851925 0.021588335
000380 5a 15 cc bc b6 54 9c bd c3 a2 91 3c f5 9d c4 bd
       -0.024912525 -0.07633345 0.017777806 -0.096004404
000390 3c 35 0d 3d 43 b8 6f bd d4 bd 03 3d 58 56 0d 3c
       0.034474596 -0.058525335 0.032163456 0.008626543
0003a0 34 a7 52 bd 98 ff 54 bd f8 89 e9 3c ea 4c cf bd
       -0.05142899 -0.052001566 0.028508171 -0.10122092
0003b0 8a 30 4f bd 62 f5 c4 3c 02 6f 72 bd bb a9 af bd
       -0.0505834 0.024042789 -0.059187897 -0.085772954
0003c0 c0 4a 03 3d b9 09 05 bb d9 e5 35 3d fb 2b 07 3a
       0.03205371 -0.0020299985 0.044408653 0.0005156395
0003d0 b3 75 21 3d 1f 43 08 3d f9 e1 7b 3b c9 d1 01 3c
       0.039418887 0.033267137 0.003843425 0.007923552
0003e0 75 b3 33 3d e1 ff 34 bd 2c fe 9d bd 12 96 92 bd
       0.043872315 -0.044189338 -0.07714495 -0.0715753
0003f0 2a 00 4d bd 64 0e bd bc a1 cf 08 3b 14 7d 8f bd
       -0.050048985 -0.023078151 0.002087571 -0.07006279
