h2_weights.npy (npy, 896 bytes, 1 tensors)

array f4 [3, 64]
000000 b6 1b 76 bd 98 81 72 3e 93 33 47 be 78 ba 5a 3e
       -0.06008502 0.23682249 -0.19453268 0.21360195
000010 43 3d c4 3d 48 08 8a bd 29 16 15 be 9f dd 41 bd
       0.09581997 -0.06739861 -0.14559235 -0.047330495
000020 d7 c2 1c be 29 57 2d be 3a cb 20 be 83 db 15 be
       -0.153087 -0.1692778 -0.15702525 -0.14634518
000030 83 fb 46 be a3 2c 60 be 99 f1 82 be 36 98 73 be
       -0.19431882 -0.21892028 -0.2557495 -0.23788533
000040 b1 75 04 3e 8f cd 0f be d4 bb 25 be a3 22 4b 3e
       0.1293552 -0.14043258 -0.16184932 0.19837432
000050 63 c7 6a be 69 30 0e be 92 0f 7c be c2 4b 60 3e
       -0.22927622 -0.13885655 -0.24615315 0.219039
000060 2a 93 e9 3d ba 3f 18 be a6 c7 89 be 6b aa 2b be
       0.114050224 -0.1486806 -0.26910132 -0.16764228
000070 25 db d3 bd 21 89 1b 3e 43 d1 31 be fa 50 86 3e
       -0.10344533 0.1518903 -0.17364983 0.26233655
000080 b3 c9 10 be cd 70 01 3e e8 f3 6a 3e 19 86 0e 3e
       -0.14139442 0.12640686 0.22944605 0.13918342
000090 40 7c 69 be ce 8b 65 3e 34 2b aa 3d 3b d9 f0 bd
       -0.22801304 0.22416613 0.083090216 -0.117601834
0000a0 16 50 71 be e6 3b be bd e6 37 3e 3e 32 d2 f3 bd
       -0.23565707 -0.092887685 0.18576011 -0.11905326
0000b0 43 a3 6c 3e df b1 0b 3e 88 9d 77 3e a4 df 87 be
       0.23109154 0.13642071 0.24181187 -0.26537812
0000c0 b4 0d d9 3d 4a 80 0c be 3a 6f 56 be f2 32 9e bd
       0.10598317 -0.13720813 -0.20940867 -0.07724561
0000d0 ac 1a 9d bd a1 79 8a 3e 1e a1 0a bd 7c 17 4a 3e
       -0.07671103 0.2704592 -0.03384506 0.19735521
0000e0 f3 17 47 be 78 0a 85 3d cc 14 5f be 83 4a da bd
       -0.1944273 0.064961374 -0.21785277 -0.10658743
0000f0 0f 72 d1 3d d1 fc c7 bd 29 94 13 3e d0 b8 d8 3d
       0.10226833 -0.09765018 0.14411987 0.10582125
000100 79 16 83 3e 70 b6 f9 bd cd 29 85 3e 21 a2 01 be
       0.25603083 -0.12193 0.26008454 -0.12659504
000110 39 31 4e be 7e 8d aa bb 61 ad 65 3e 22 d6 73 3e
       -0.20135964 -0.0052048555 0.2242942 0.23812154
000120 55 ec 03 3e 25 e0 79 be c2 71 33 bd e4 b1 87 be
       0.12883122 -0.2440191 -0.04380966 -0.26502907
000130 9c 14 89 3e 02 bb 77 be 2b 8c 9f 3d d2 09 74 3e
       0.26773536 -0.24192432 0.07790407 0.23831871
000140 2f 8d 27 be 65 3f 0b 3e 89 1d 88 3e 9d 39 26 be
       -0.16362451 0.13598402 0.26585034 -0.16232915
000150 d3 ef a5 3d b2 b7 55 3e 4f 71 45 be 99 ad d2 bd
       0.081023835 0.20870855 -0.19281505 -0.102870174
000160 0a b3 a4 3d 36 b4 59 3e 25 ec 14 3e 04 f4 86 3e
       0.080419615 0.21260151 0.14543207 0.26358044
000170 4f 6f 01 be 15 6c 7b be 0a d8 66 be 7f 0d 6f bd
       -0.12640117 -0.24552949 -0.2254335 -0.05836248
000180 15 69 29 be 6c 1e 87 be 7d 40 81 be ea 3e 84 be
       -0.16543992 -0.26390398 -0.25244513 -0.2582925
000190 a7 a3 54 be 93 53 54 be a7 47 51 be ab a5 9c bc
       -0.20765553 -0.20735006 -0.2043749 -0.019121965
0001a0 31 dc 21 be c4 df 18 bd 30 c8 ef 3d 7f f5 50 3e
       -0.15806653 -0.037322775 0.117081046 0.2040615
0001b0 21 36 a5 bd 7b 24 1a 3e 92 5b 7d bd 30 35 05 3e
       -0.08066965 0.15052979 -0.061854906 0.1300857
0001c0 9a 9f 6e be a2 7e c8 bd 29 39 a8 3d bc 4b c8 bd
       -0.2330307 -0.09789778 0.082140274 -0.0978007
0001d0 a9 bc 57 be 73 30 d0 bc 34 28 81 3e b2 de 1e be
       -0.21068062 -0.025413727 0.25225985 -0.15514639
0001e0 6d a9 72 3e 25 46 65 be a4 85 d2 bd 06 8c 59 3e
       0.23697443 -0.2239004 -0.10279396 0.21244821
0001f0 63 bc a7 3d 78 79 68 3e 11 e1 61 3d 90 81 b7 3d
       0.08190229 0.22702587 0.05514628 0.08960259
000200 49 66 64 be e6 a1 93 3c cb c7 97 bc 1e 33 c0 bd
       -0.22304644 0.018021535 -0.018527886 -0.0938475
000210 f5 61 3b 3e f6 ed 21 be 06 c2 51 3a 1e 87 89 be
       0.18299086 -0.15813431 0.0008001629 -0.268609
000220 8f e4 0b 3e b8 59 73 3e ca 3f 88 3e 13 85 73 3e
       0.13661407 0.23764694 0.26611167 0.23781233
000230 ec f7 41 be 3f d4 6a 3e fd 50 cf 3d da d9 24 be
       -0.18942231 0.22932528 0.10122869 -0.16098729
000240 00 6a 0d be be b1 dd bd 6f 6b f6 bd d6 18 4e be
       -0.13809967 -0.10824917 -0.1203221 -0.20126662
000250 76 35 1f 3d 96 44 97 bd 28 a1 a8 3d 97 5d 05 be
       0.038869344 -0.073861286 0.08233863 -0.13023983
000260 01 1b 64 be fd 36 42 3e 1a 91 3e 3e 5b 4d e2 bd
       -0.22275926 0.18966289 0.1861004 -0.11049911
000270 9c a5 78 3e 8f 37 59 3d 8a 17 6d 3e ef 54 4f be
       0.24281925 0.0530315 0.2315351 -0.20247243
000280 82 3c 0c 3e 7d 11 0c be a9 df 08 be 21 a2 02 3e
       0.13694957 -0.13678546 -0.1336657 0.1275716
000290 97 69 3b 3e 31 47 e8 3d 61 35 68 3e b5 00 72 3e
       0.18301998 0.11341704 0.22676612 0.23633082
0002a0 71 dd 6e 3e 52 4b 8d 3e 6f d9 0d be 0e 91 de bd
       0.2332666 0.27596527 -0.13852476 -0.10867511
0002b0 83 eb b9 bd 97 7b 58 be e8 9f 10 be 91 bf b7 3d
       -0.090781234 -0.21140896 -0.141235 0.08972085
0002c0 ff 69 ea 3d 26 b4 61 3e c9 3f 08 3e f4 f2 6c 3e
       0.114459984 0.22041377 0.13305582 0.23139554
0002d0 ba b3 21 3e 2e d8 95 bd e4 67 fe bd 9b ff 31 bd
       0.15791216 -0.07316624 -0.12422159 -0.043456655
0002e0 1d 26 d0 3d 61 c6 63 3d d6 eb 76 3e 42 29 23 bd
       0.101635195 0.05560911 0.24113402 -0.03983427
0002f0 ef 61 43 be 00 a5 c2 bd 07 06 85 be de 3a 80 be
       -0.19080327 -0.095041275 -0.2598116 -0.25044912
